data.pth (torch, 40919 bytes, 6 tensors)

l1.weight f4 [8, 676]
0.8867708 2.2120275 0.8577004 3.772305 0.52245104 -0.21070327 0.6690272 -0.77303296
7.675145 3.9134185 -0.17879362 -0.22880265 1.6231303 1.9088361 -0.17599078 1.155869
-0.81953233 0.07144816 0.5423037 -0.8684393 -0.0010100605 -0.72799456 0.24217877 -9.0703335
0.38257343 0.37346858 -2.9737563 2.26549 0.13478112 1.2725679 9.143978 5.7300878
-0.06933071 -0.47748765 -0.6132426 1.1452174 -0.15711239 0.37066677 3.0130131 -2.2757063
-0.15952311 4.679013 -0.7489796 -0.9795624 0.3547907 0.96353483 0.6069971 -0.17830251
1.6257211 -0.53752524 -0.6809463 -0.4235764 -3.5131035 1.1375197 -1.9807686 -0.8333312
0.36843896 -1.7258135 1.396789 1.704616 5.6238575 0.24853042 -0.79551834 -0.56317234
-0.47177005 -0.08909044 1.7347951 0.5822512 -0.46258178 1.0029256 -0.5044227 1.7255218
-0.6254121 0.085718945 4.773499 0.19284844 2.2942803 -1.2978132 2.5390646 -0.35881454
-2.398003 3.2440264 0.21150632 4.3504567 -0.1382045 -1.0692698 -5.2622385 1.2845408
-0.66488945 0.45526326 -1.8620601 -0.18862416 0.5789661 0.35813463 -2.0333948 -1.0383222
-0.3928709 0.22201551 0.62104726 3.917134 0.012904961 4.968878 -0.19775733 3.2012057
1.0539222 -0.78763604 0.77848625 0.15555798 -3.112771 8.96809 4.379211 2.4040508
2.9066424 2.3979828 0.31252193 1.9068701 1.0441889 0.20363311 1.6658915 0.21618827
3.6399634 4.4450297 -2.9315383 1.2767068 -0.5602158 -0.6926914 0.50192136 3.9437697
0.9360396 -8.568701 0.8552447 -2.6796505 0.3711518 3.3624902 4.5886254 -9.314661
2.7965188 -0.6834839 3.388076 0.45030367 -0.72839665 0.50179446 0.020113714 3.2838023
-1.6777158 5.061715 0.10046107 0.904135 1.0617111 -0.004458084 1.0209845 0.050586157
3.1929364 1.9032891 -0.23417701 -2.353049 3.570863 6.6102986 -1.316598 -0.12189967
-1.5530277 -0.19821689 -5.069988 9.235077 -1.5395907 -0.008416878 0.6813112 -0.33406442
0.673208 -2.2572663 -0.35602468 4.3750486 0.40832922 -1.3346802 -0.58312124 -0.83091146
11.797901 2.3199148 -1.3689215 -0.5434225 -0.11996145 0.056430437 1.06279 0.41671184
1.7154673 0.7814806 2.1078963 -2.2197988 1.3197042 4.199848 0.3889902 3.1822639
0.30494604 1.7208408 -2.8671782 -0.29723358 0.1315005 -1.432357 -0.99807024 0.108530216
-1.6813153 -2.686388 2.8264995 1.9001364 3.274513 -1.3673929 0.89837223 1.4089699
0.11900292 1.8219728 1.6721493 7.0805435 0.55188364 -0.7894037 -0.76527387 0.75330013
1.7300916 1.868098 -2.162835 2.18056 3.3164816 -2.3768709 5.4821024 1.0796717
4.024056 2.5103238 -0.23969916 0.3438453 0.78068066 0.31254995 5.7537603 -1.6508977
3.2526157 -2.5012074 -1.3887182 -1.0083098 -0.48644465 -0.47157827 -3.036379 -0.11489221
0.29980454 5.704861 1.3601863 -0.91086185 1.0524379 -2.1121054 -0.03130238 -1.4211913
0.22448374 4.979484 0.9654657 -1.7119437 1.4832923 1.9760435 2.4336615 0.89326626
00000000: 6903 633f dc91 0d40 4192 5b3f 726d 7140
00000010: 5abf 053f 99c2 57be 5e45 2b3f 7de5 45bf
00000020: ca9a f540 7375 7a40 ad15 37be 3e4b 6abe
00000030: bcc2 cf3f be54 f43f ed36 34be 84f3 933f
00000040: dfcc 51bf 6a53 923d 6ad4 0a3f 0a52 5ebf
00000050: 0264 84ba da5d 3abf b6fd 773e 1620 11c1
00000060: aae0 c33e 4637 bf3e 0652 3ec0 cafd 1040
00000070: 1004 0a3e 81e3 a23f bc4d 1241 e15c b740
00000080: 42fd 8dbd 4379 f4be 78fd 1cbf 7c96 923f
00000090: 12e2 20be 09c8 bd3e 35d5 4040 2ca5 11c0
000000a0: 075a 23be 79ba 9540 21bd 3fbf 9ac4 7abf
000000b0: 20a7 b53e 38aa 763f 2964 1b3f ef94 36be
000000c0: a117 d03f 419b 09bf 7f52 2ebf 02df d8be
000000d0: b0d6 60c0 3f9a 913f d389 fdbf 3255 55bf
000000e0: 08a4 bc3e 75e7 dcbf fbc9 b23f db30 da3f
000000f0: a4f6 b340 c27e 7e3e 17a7 4bbf 102c 10bf
00000100: d88b f1be 0c75 b6bd c40d de3f 6a0e 153f
00000110: 85d7 ecbe de5f 803f d921 01bf e6dd dc3f
00000120: 021b 20bf 6a8d af3d 81c0 9840 107a 453e
00000130: 7dd5 1240 be1e a6bf 0980 2240 8ab6 b7be
00000140: e278 19c0 219e 4f40 1d95 583e f136 8b40
00000150: 7b85 0dbe d5dd 88bf 4264 a8c0 d56b a43f
00000160: 3236 2abf 4418 e93e fc57 eebf b126 41be
00000170: 1f37 143f 6c5d b73e 2423 02c0 bee7 84bf
00000180: 6026 c9be 0958 633e f4fc 1e3f 53b2 7a40
00000190: 546f 533c 0c01 9f40 e680 4abe 8ee0 4c40
000001a0: ece6 863f 84a2 49bf e04a 473f 974a 1f3e
000001b0: a437 47c0 4c7d 0f41 7f22 8c40 f8db 1940
000001c0: 6e06 3a40 8d78 1940 e002 a03e 5214 f43f
000001d0: fba7 853f 3385 503e ef3b d53f 7560 5d3e
000001e0: 29f5 6840 af3d 8e40 539e 3bc0 216b a33f
000001f0: 4d6a 0fbf 3954 31bf eb7d 003f b966 7c40
00000200: 4ba0 6f3f 6619 09c1 51f1 5a3f 657f 2bc0
00000210: 9c07 be3e 0a33 5740 05d6 9240 da08 15c1
00000220: 2afa 3240 cdf8 2ebf 3dd6 5840 348e e63e
00000230: 3478 3abf 9a75 003f 84c5 a43c d129 5240
00000240: 64bf d6bf 92f9 a140 89be cd3d 6475 673f
00000250: 26e6 873f 1e15 92bb 9faf 823f 6e33 4f3d
00000260: 1259 4c40 fa9e f33f 19cc 6fbe 5b98 16c0
00000270: 0589 6440 9187 d340 4986 a8bf 89a6 f9bd
00000280: 9dc9 c6bf 5ef9 4abe 573d a2c0 e0c2 1341
00000290: 4f11 c5bf f2e6 09bc 696a 2e3f 7e0a abbe
000002a0: 5c57 2c3f 0d77 10c0 de48 b6be 6600 8c40
000002b0: 8710 d13e cdd6 aabf 6f47 15bf 9db6 54bf
000002c0: 34c4 3c41 7c79 1440 d238 afbf bd1d 0bbf
000002d0: 59ae f5bd 9a23 673d 8109 883f 415b d53e
000002e0: 6f94 db3f 1d0f 483f c6e7 0640 2f11 0ec0
000002f0: 11ec a83f 2865 8640 b929 c73e 36aa 4b40
00000300: e321 9c3e 8344 dc3f d97f 37c0 002f 98be
00000310: 11a8 063e 7957 b7bf 8881 7fbf 1745 de3d
00000320: 5735 d7bf c8ed 2bc0 5ee5 3440 ab37 f33f
00000330: 9f91 5140 bb06 afbf b9fb 653f 2059 b43f
00000340: ceb7 f33d 6836 e93f fd08 d63f d093 e240
00000350: 3f48 0d3f 5c16 4abf fde8 43bf 47d8 403f
00000360: a473 dd3f d61d ef3f e36b 0ac0 4c8e 0b40
00000370: 3c41 5440 a71e 18c0 626d af40 af32 8a3f
00000380: 11c5 8040 25a9 2040 b273 75be 7e0c b03e
00000390: b0da 473f 8c06 a03e ce1e b840 9e50 d3bf
000003a0: db2a 5040 c813 20c0 85c1 b1bf 4c10 81bf
000003b0: 460f f9be b572 f1be 0954 42c0 9b4c ebbd
000003c0: fb7f 993e 398e b640 961a ae3f 3e2e 69bf
000003d0: 49b6 863f bc2c 07c0 ed36 00bd 99e9 b5bf
000003e0: 11df 653e ef57 9f40 c328 773f f920 dbbf
000003f0: 86dc bd3f feee fc3f 1cc1 1b40 19ad 643f

l1.bias f4 [8]
1.0860479 0.3122184 -0.02984798 2.2322528 2.179147 0.6172602 1.7276901 0.2498182
00000000: 9e03 8b3f 17db 9f3e c083 f4bc 3bdd 0e40
00000010: 2577 0b40 c404 1e3f f324 dd3f 58d0 7f3e

l2.weight f4 [8, 8]
1.1267049 1.4328339 -0.83096194 -0.10320742 0.3533488 -1.18608 2.4544146 -1.0368824
2.3015916 0.74845564 1.8445137 -0.64060223 1.0330081 -0.46662882 -0.7365629 0.6358833
-1.7024107 1.9484721 -0.24168354 1.0104972 1.189295 2.2794232 -0.7815142 -0.28239444
-0.15244867 1.790329 0.37139496 1.8882091 -1.5921894 -1.3865979 0.011240307 0.79071933
0.27368325 1.1236115 0.83548564 -2.8624566 -2.9176133 -0.90851384 0.37591907 1.0245016
-2.8000736 0.51369816 -0.19993876 -0.11503919 0.42882636 -0.6618579 1.4911181 3.1765401
0.14428739 -1.0612351 -0.65713245 0.88882893 1.7992125 0.28572732 -0.21436638 1.0485626
-1.828332 -1.238742 3.0855277 1.4657073 -0.52116174 0.6045565 1.647073 0.27922693
00000000: de37 903f 1a67 b73f ecb9 54bf 695e d3bd
00000010: 22ea b43e 78d1 97bf 2115 1d40 90b8 84bf
00000020: 474d 1340 ca9a 3f3f 0619 ec3f 82fe 23bf
00000030: 9c39 843f f9e9 eebe 638f 3cbf 3fc9 223f
00000040: 98e8 d9bf 8967 f93f e47b 77be f957 813f
00000050: d23a 983f 12e2 1140 5111 48bf 0196 90be
00000060: 811b 1cbe 8029 e53f 7b27 be3e d6b0 f13f
00000070: ddcc cbbf 0a7c b1bf 4429 383c 956c 4a3f
00000080: 3620 8c3e 80d2 8f3f 63e2 553f 7d32 37c0
00000090: 2dba 3ac0 5d94 68bf 7778 c03e de22 833f
000000a0: 6834 33c0 b981 033f bfbc 4cbe ab99 ebbd
000000b0: 218f db3e 856f 29bf f5dc be3f 6f4c 4b40
000000c0: 13c0 133e 8dd6 87bf d539 28bf 4b8a 633f
000000d0: 984c e63f da4a 923e dc82 5bbe 4d37 863f
000000e0: c806 eabf 198f 9ebf 4979 4540 4c9c bb3f
000000f0: db6a 05bf 37c4 1a3f 4ad3 d23f d5f6 8e3e

l2.bias f4 [8]
0.53114164 -1.9626874 -1.1469575 0.14789179 -0.607889 -0.14520884 -1.4439003 -0.29525757
00000000: e6f8 073f 5739 fbbf 81cf 92bf f270 173e
00000010: 9d9e 1bbf a0b1 14be bad1 b8bf 002c 97be

l3.weight f4 [126, 8]
0.5942956 2.1213667 -12.956107 -11.056565 3.520958 0.3112326 -11.835167 -2.2711513
2.5040567 -4.222124 1.4942833 -6.5304823 -6.409467 -13.889833 -13.469307 -6.7968802
0.42276037 1.8234751 -7.319648 -24.225502 -18.773321 4.2479935 -13.789571 -1.3627895
-3.936723 -5.4953938 -1.3991133 -0.9832602 -0.39177197 -15.655656 4.9331985 -3.1941772
1.165279 -5.4353642 0.8021249 -5.8962965 6.177636 -11.14923 -9.8903 -1.1366345
2.2406833 -3.4952629 0.013356887 -1.8086321 -4.2778234 -15.10714 -22.668852 -2.464867
-4.016379 -1.3234185 -0.054063134 2.4682138 -5.1419654 -11.86705 -15.132603 -2.1119523
-0.43822208 0.90818155 -1.7935307 -35.31159 10.801469 -19.369995 -1.7874769 0.8548868
-18.76983 -11.369255 -1.4717942 2.1671195 -4.6343484 -0.85758454 0.53940296 -0.46774518
-14.312413 -1.152167 -1.7531674 -14.833406 3.2512062 2.5581367 -0.72605646 -0.2111435
-4.3106318 -1.9785305 -4.251144 -3.6459506 -2.5586953 -12.142214 3.1711576 1.8654956
0.83973104 -0.13139208 -34.79213 -26.53974 -18.316212 -13.170646 -0.91617215 0.40505412
-1.479873 -4.4516306 0.44800085 0.5841801 -45.94782 0.7424206 -0.3418397 -1.9868604
-1.316444 -1.6298207 0.32771114 -1.3737754 -38.658504 0.57893765 0.23732476 -0.4390957
-15.226688 -0.011934968 -6.794246 0.37406242 -4.6388764 2.353025 -7.7204366 1.6698633
-0.8640185 1.2260731 -3.779114 1.5375444 2.2341049 -14.466429 -44.889153 -24.439613
-5.0607624 -2.6041842 1.7309834 -6.0483027 -24.789303 4.090649 -0.48791736 -29.028858
-3.3358538 0.50331783 1.0233861 -1.9109863 -1.7011063 -0.8872347 0.85038054 -1.8381022
-8.47832 -1.6344751 0.54033023 0.1863114 2.1494484 0.72881645 -0.48229212 -2.3089454
0.9759999 -0.07948216 -1.4324538 -1.385416 -20.526754 -41.758495 -21.266035 0.60184205
-1.0352316 0.9759555 -1.0445541 -0.8431243 0.3862051 -25.17746 -2.315144 0.30667657
0.87006897 -0.68839824 0.08456997 -22.038877 -1.4196144 0.47994727 0.0820528 -1.4158235
-1.1957572 0.7261217 -1.9172255 0.32922962 7.453462 -12.540468 0.47019815 -1.1431837
-0.6312306 -0.36672065 -2.8274243 -0.21987304 -23.444204 -0.24278902 -0.12804542 -0.037913416
-1.0801663 -27.395227 -0.7128941 0.27548528 -14.353108 1.6579927 -20.778652 -0.067812786
-0.94242096 -37.262115 1.2160852 -3.2072186 -31.2391 0.37200835 -0.33660886 0.79597867
0.675205 -15.8887005 3.9091916 -0.6293079 -2.6362274 -2.1174023 -14.598417 -1.708639
0.5660992 -0.72370875 -1.3519149 0.2693477 0.06630288 -1.6125098 -1.8267839 0.22845688
-3.0776753 -2.8823252 -2.574353 -1.541563 0.05432388 -1.8964255 -1.9945077 -1.1989896
-1.5280735 -15.4188385 -0.27592686 -5.344567 -4.1827855 -2.053278 -17.082823 2.1488137
-3.015245 -5.072639 -5.3030195 2.0110614 -2.1403775 -8.231957 2.2745535 -0.2229789
-0.30910516 -0.7087396 -14.755155 -15.114938 -3.1102755 -4.3368216 3.3257055 0.14461708
00000000: c223 183f 79c4 0740 374c 4fc1 b1e7 30c1
00000010: 6057 6140 e159 9f3e d85c 3dc1 8b5a 11c0
00000020: 7742 2040 a41b 87c0 ad44 bf3f b6f9 d0c0
00000030: 5b1a cdc0 c23c 5ec1 4882 57c1 0b80 d9c0
00000040: 0c74 d83e a267 e93f 8e3a eac0 d4cd c1c1
00000050: c32f 96c1 90ef 8740 15a2 5cc1 e36f aebf
00000060: 45f3 7bc0 44da afc0 2516 b3bf f1b6 7bbf
00000070: 5696 c8be 917d 7ac1 c3dc 9d40 666d 4cc0
00000080: dd27 953f 81ee adc0 0f58 4d3f 76ae bcc0
00000090: 32af c540 3f63 32c1 ab3e 1ec1 3d7d 91bf
000000a0: 5b67 0f40 63b2 5fc0 d8d6 5a3c 4281 e7bf
000000b0: eee3 88c0 d8b6 71c1 cf59 b5c1 62c0 1dc0
000000c0: 2d86 80c0 c765 a9bf 4e71 5dbd 37f7 1d40
000000d0: fb8a a4c0 70df 3dc1 241f 72c1 3a2a 07c0
000000e0: a55e e0be 967e 683f 6a92 e5bf 113f 0dc2
000000f0: d1d2 2c41 c0f5 9ac1 0bcc e4bf dcd9 5a3f
00000100: 9d28 96c1 78e8 35c1 c163 bcbf 16b2 0a40
00000110: 954c 94c0 a98a 5bbf 5016 0a3f 4c7c efbe
00000120: a5ff 64c1 357a 93bf ca67 e0bf a255 6dc1
00000130: c313 5040 83b8 2340 d6de 39bf 0036 58be
00000140: b2f0 89c0 7d40 fdbf 5f09 88c0 4157 69c0
00000150: aac1 23c0 8246 42c1 3ff4 4a40 8fc8 ee3f
00000160: 9df8 563f a58b 06be 242b 0bc2 6351 d4c1
00000170: 9a87 92c1 f7ba 52c1 428a 6abf 4163 cf3e
00000180: 7a6c bdbf c273 8ec0 5e60 e53e d48c 153f
00000190: 91ca 37c2 470f 3e3f 9d05 afbe 7151 febf
000001a0: 3d81 a8bf f79d d0bf c1c9 a73e dfd7 afbf
000001b0: 4fa2 1ac2 4235 143f 4305 733e 27d1 e0be
000001c0: 84a0 73c1 e28a 43bc 776a d9c0 1c85 bf3e
000001d0: ad71 94c0 f697 1640 d10d f7c0 15be d53f
000001e0: 5130 5dbf f7ef 9c3f 01dd 71c0 41ce c43f
000001f0: 93fb 0e40 7e76 67c1 7e8e 33c2 5484 c3c1
00000200: c4f1 a1c0 f4aa 26c0 dd90 dd3f b28b c1c0
00000210: 7e50 c6c1 99e6 8240 4ed0 f9be 1a3b e8c1
00000220: a17e 55c0 70d9 003f 51fe 823f 339b f4bf
00000230: dabd d9bf d021 63bf 8ab2 593f ef46 ebbf
00000240: 33a7 07c1 7b36 d1bf 1553 0a3f 6ac8 3e3e
00000250: 9090 0940 b793 3a3f feee f6be c3c5 13c0
00000260: 21db 793f 8bc7 a2bd a55a b7bf 5055 b1bf
00000270: cb36 a4c1 b308 27c2 d720 aac1 5212 1a3f
00000280: 7882 84bf 38d8 793f f3b3 85bf fed6 57bf
00000290: adbc c53e 706b c9c1 522b 14c0 b604 9d3e
000002a0: d7bc 5e3f de3a 30bf 0533 ad3d 9f4f b0c1
000002b0: edb5 b5bf a6bb f53e 4c0b a83d b439 b5bf
000002c0: 920e 99bf 1de3 393f a567 f5bf c990 a83e
000002d0: c382 ee40 c2a5 48c1 d0bd f03e d853 92bf
000002e0: 5498 21bf cfc2 bbbe 85f4 34c0 6626 61be
000002f0: bb8d bbc1 af9d 78be 571e 03be 194b 1bbd
00000300: e442 8abf 6d29 dbc1 3a80 36bf 680c 8d3e
00000310: 55a6 65c1 1b39 d43f ae3a a6c1 6ee1 8abd
00000320: 8042 71bf 680c 15c2 aea8 9b3f 1243 4dc0
00000330: ade9 f9c1 e177 be3e ff57 acbe 42c5 4b3f
00000340: 3cda 2c3f 1e38 7ec1 3230 7a40 531a 21bf
00000350: f3b7 28c0 8583 07c0 1e93 69c1 afb4 dabf
00000360: e1eb 103f fa44 39bf 8c0b adbf f1e7 893e
00000370: cec9 873d b966 cebf 0ed4 e9bf 9af0 693e
00000380: a2f8 44c0 0478 38c0 33c2 24c0 f051 c5bf
00000390: b782 5e3d 12be f2bf 074c ffbf 7e78 99bf
000003a0: ea97 c3bf 90b3 76c1 4946 8dbe b106 abc0
000003b0: 61d9 85c0 e868 03c0 9fa9 88c1 2a86 0940
000003c0: c6f9 40c0 0f53 a2c0 56b2 a9c0 3bb5 0040
000003d0: f2fb 08c0 19b6 03c1 4992 1140 9554 64be
000003e0: 0843 9ebe f56f 35bf 1d15 6cc1 c9d6 71c1
000003f0: c10e 47c0 3ec7 8ac0 5cd8 5440 8016 143e

l3.bias f4 [126]
-18.86596 -13.425438 -14.343559 -6.5036435 -9.309052 -17.071009 -10.299865 -0.19091709
-13.523854 -8.404403 -6.0927496 0.8216515 -0.6282138 -3.1347003 -9.607482 1.5253704
-15.052363 1.0311729 -4.733948 -1.1060778 2.2660291 0.20615052 2.5900726 -0.47208375
-16.31848 -2.9558423 -8.028616 -3.1127965 -1.4020274 -8.567534 -3.3049173 -16.956339
-2.549242 0.9619523 -9.102929 -15.343474 -4.0875554 -20.590364 0.65453005 -4.644828
-22.316511 -18.5759 -12.193272 -2.7991633 -7.2324038 -3.9513483 -18.878412 -1.291539
1.4259417 -15.668649 -7.216289 0.20370856 0.10076863 -17.486902 -8.385801 -7.5384007
-6.819309 -13.372942 -11.860463 -0.5686889 2.6011927 -23.533737 2.8017304 -18.511795
-33.922665 -19.84848 0.521217 -0.24394025 -1.4336606 -11.838994 -0.3892693 6.2108064
-9.286025 -0.041690975 -11.586803 1.9971694 -8.7120695 -13.28513 -2.450524 -12.971732
-1.4495667 -17.441101 12.093438 -16.966473 0.95160043 -9.68843 -0.94582933 -1.9514897
-8.407484 -18.031395 -6.550536 -21.887651 0.5258664 17.62139 -25.417974 -15.876247
-10.639781 -1.0901799 -11.343878 -0.18329975 -17.33309 -9.8587885 -13.594506 -2.1893644
2.1675003 -9.493254 -3.916402 -1.1675979 6.9345174 -7.207187 -3.8349245 -13.248579
-17.10048 -4.588624 -19.65073 0.7862435 -9.716763 -16.971516 -16.739353 -11.511197
-2.1628804 -7.344106 -6.819023 -14.023292 -20.837812 -8.5912075
00000000: 7ced 96c1 98ce 56c1 387f 65c1 d91d d0c0
00000010: e1f1 14c1 6d91 88c1 3fcc 24c1 c57f 43be
00000020: b561 58c1 6f78 06c1 cef7 c2c0 c157 523f
00000030: 9fd2 20bf ee9e 48c0 3fb8 19c1 563f c33f
00000040: 7bd6 70c1 79fd 833f 817c 97c0 f593 8dbf
00000050: 9f06 1140 1f19 533e c0c3 2540 f6b4 f1be
00000060: 3f8c 82c1 852c 3dc0 3675 00c1 0f38 47c0
00000070: a275 b3bf 9f14 09c1 c483 53c0 95a6 87c1
00000080: c826 23c0 8242 763f 99a5 11c1 df7e 75c1
00000090: 41cd 82c0 11b9 a4c1 488f 273f 6ea2 94c0
000000a0: 3788 b2c1 719b 94c1 a417 43c1 7e25 33c0
000000b0: da6f e7c0 e4e2 7cc0 fd06 97c1 2651 a5bf
000000c0: 4285 b63f c9b2 7ac1 d7eb e6c0 fa98 503e
000000d0: c95f ce3d 2de5 8bc1 3e2c 06c1 943a f1c0
000000e0: c837 dac0 92f7 55c1 75c4 3dc1 9995 11bf
000000f0: f179 2640 1845 bcc1 8d4f 3340 2818 94c1
00000100: cfb0 07c2 b0c9 9ec1 7a6e 053f 79cb 79be
00000110: 3182 b7bf 856c 3dc1 4e4e c7be edbe c640
00000120: 8f93 14c1 28c4 2abd 8c63 39c1 3fa3 ff3f
00000130: a364 0bc1 e48f 54c1 63d5 1cc0 378c 4fc1
00000140: 678b b9bf 6087 8bc1 b97e 4141 56bb 87c1
00000150: 169c 733f cf03 1bc1 df21 72bf 6aca f9bf
00000160: 0e85 06c1 4c40 90c1 fe9d d1c0 e919 afc1
00000170: 2e9f 063f 9bf8 8c41 0358 cbc1 1c05 7ec1
00000180: 8b3c 2ac1 048b 8bbf 8680 35c1 eeb2 3bbe
00000190: 2baa 8ac1 99bd 1dc1 1983 59c1 8c1e 0cc0
000001a0: 53b8 0a40 5ee4 17c1 55a6 7ac0 d973 95bf
000001b0: 91e7 dd40 47a1 e6c0 676f 75c0 2efa 53c1
000001c0: c8cd 88c1 02d6 92c0 b234 9dc1 4147 493f
000001d0: dc77 1bc1 aac5 87c1 32ea 85c1 dd2d 38c1
000001e0: a26c 0ac0 eb02 ebc0 7035 dac0 675f 60c1
000001f0: d7b3 a6c1 9675 09c1
